参数记一下

conv.0.weight : torch.Size([6, 1, 5, 5])
conv.3.weight : torch.Size([16, 6, 5, 5])
fc.0.weight : torch.Size([120, 256])
fc.0.bias : torch.Size([120])
fc.2.weight : torch.Size([84, 120])
fc.2.bias : torch.Size([84])
fc.4.weight : torch.Size([10, 84])
fc.4.bias : torch.Size([10])
----------------------------------------------------------------
        Layer (type)               Output Shape         Param #
================================================================
            Conv2d-1            [-1, 6, 24, 24]             150
              ReLU-2            [-1, 6, 24, 24]               0
         MaxPool2d-3            [-1, 6, 12, 12]               0
            Conv2d-4             [-1, 16, 8, 8]           2,400
              ReLU-5             [-1, 16, 8, 8]               0
         MaxPool2d-6             [-1, 16, 4, 4]               0
            Linear-7                  [-1, 120]          30,840
              ReLU-8                  [-1, 120]               0
            Linear-9                   [-1, 84]          10,164
             ReLU-10                   [-1, 84]               0
           Linear-11                   [-1, 10]             850
================================================================
Total params: 44,404
Trainable params: 44,404
Non-trainable params: 0
----------------------------------------------------------------
Input size (MB): 0.00
Forward/backward pass size (MB): 0.08
Params size (MB): 0.17
Estimated Total Size (MB): 0.25
----------------------------------------------------------------



conv.0.weight
…
